…
           'RPN_TWIN_INSIDE_WEIGHTS': [1.0, 1.0],
           'TRUNCATED': False,
           'TWIN_INSIDE_WEIGHTS': [1.0, 1.0],
           'TWIN_NORMALIZE_MEANS': [0.0, 0.0],
           'TWIN_NORMALIZE_STDS': [0.1, 0.2],
           'TWIN_NORMALIZE_TARGETS': True,
           'TWIN_NORMALIZE_TARGETS_PRECOMPUTED': True,
           'TWIN_REG': True,
           'VIDEO_BATCH': 1,
           'WEIGHT_DECAY': 0.0005},
 'USE_ATTENTION': False,
 'USE_GPU_NMS': True}
3304 roidb entries
cfg.POOLING_LENGTH: 4
Loading pretrained weights from data/pretrained_model/activitynet_iter_30000_3fps-caffe.pth
c3d_tdcnn(
  (RCNN_rpn): _RPN(
    (RPN_Conv1): Conv3d(512, 512, kernel_size=(3, 3, 3), stride=(1, 2, 2), padding=(1, 1, 1))
    (RPN_Conv2): Conv3d(512, 512, kernel_size=(3, 3, 3), stride=(1, 2, 2), padding=(1, 1, 1))
    (RPN_output_pool): MaxPool3d(kernel_size=(1, 2, 2), stride=(1, 2, 2), padding=0, dilation=1, ceil_mode=False)
    (RPN_cls_score): Conv3d(512, 20, kernel_size=(1, 1, 1), stride=(1, 1, 1))
    (RPN_twin_pred): Conv3d(512, 20, kernel_size=(1, 1, 1), stride=(1, 1, 1))
    (RPN_proposal): _ProposalLayer()
    (RPN_anchor_target): _AnchorTargetLayer()
  )
  (RCNN_proposal_target): _ProposalTargetLayer()
  (RCNN_roi_temporal_pool): _RoITemporalPooling()
  (RCNN_base): Sequential(
    (0): Conv3d(3, 64, kernel_size=(3, 3, 3), stride=(1, 1, 1), padding=(1, 1, 1))
    (1): ReLU(inplace)
    (2): MaxPool3d(kernel_size=(1, 2, 2), stride=(1, 2, 2), padding=0, dilation=1, ceil_mode=False)
    (3): Conv3d(64, 128, kernel_size=(3, 3, 3), stride=(1, 1, 1), padding=(1, 1, 1))
    (4): ReLU(inplace)
    (5): MaxPool3d(kernel_size=(2, 2, 2), stride=(2, 2, 2), padding=0, dilation=1, ceil_mode=False)
    (6): Conv3d(128, 256, kernel_size=(3, 3, 3), stride=(1, 1, 1), padding=(1, 1, 1))
    (7): ReLU(inplace)
    (8): Conv3d(256, 256, kernel_size=(3, 3, 3), stride=(1, 1, 1), padding=(1, 1, 1))
    (9): ReLU(inplace)
    (10): MaxPool3d(kernel_size=(2, 2, 2), stride=(2, 2, 2), padding=0, dilation=1, ceil_mode=False)
    (11): Conv3d(256, 512, kernel_size=(3, 3, 3), stride=(1, 1, 1), padding=(1, 1, 1))
    (12): ReLU(inplace)
    (13): Conv3d(512, 512, kernel_size=(3, 3, 3), stride=(1, 1, 1), padding=(1, 1, 1))
    (14): ReLU(inplace)
    (15): MaxPool3d(kernel_size=(2, 2, 2), stride=(2, 2, 2), padding=0, dilation=1, ceil_mode=False)
    (16): Conv3d(512, 512, kernel_size=(3, 3, 3), stride=(1, 1, 1), padding=(1, 1, 1))
    (17): ReLU(inplace)
    (18): Conv3d(512, 512, kernel_size=(3, 3, 3), stride=(1, 1, 1), padding=(1, 1, 1))
    (19): ReLU(inplace)
  )
  (RCNN_top): Sequential(
    (0): Linear(in_features=8192, out_features=4096, bias=True)
    (1): ReLU(inplace)
    (2): Dropout(p=0.5)
  )
  (RCNN_cls_score): Linear(in_features=4096, out_features=21, bias=True)
  (RCNN_twin_pred): Linear(in_features=4096, out_features=42, bias=True)
)
RCNN_rpn.RPN_Conv1.weight
RCNN_rpn.RPN_Conv1.bias
RCNN_rpn.RPN_Conv2.weight
RCNN_rpn.RPN_Conv2.bias
RCNN_rpn.RPN_cls_score.weight
RCNN_rpn.RPN_cls_score.bias
RCNN_rpn.RPN_twin_pred.weight
RCNN_rpn.RPN_twin_pred.bias
RCNN_base.6.weight
RCNN_base.6.bias
RCNN_base.8.weight
RCNN_base.8.bias
RCNN_base.11.weight
RCNN_base.11.bias
RCNN_base.13.weight
RCNN_base.13.bias
…
